Atingle chatbot/data.pth (torch, 54634 bytes, 6 tensors)

l1.weight f4 [77, 77]
00000000: 4433 303d e5be e4bd 34b5 7a3d 5887 c63c
00000010: b0a9 ae3b f88d 503d f836 30bc 3088 1bbc
00000020: f65d c4bd 27f1 d3bd 9442 6a3d c8a8 303d
00000030: 5436 ecbc d033 bc3d b885 283d 3e12 31bd
00000040: e83d 883c 1846 6c3d 1a2f b33d b8a7 013d
00000050: 103d 633d 447a b73d 9acc 56bd be37 cd3d
00000060: 5cc1 373d ba22 d73d 1cd3 e3bc 50fb b93c
00000070: c8b5 91bc 585e 7d3d 416d 58bd 180c e13c
00000080: c02f c03d fcdf a43d d477 c43d 20c2 f9bb
00000090: 006d b83d 60d4 d13b 9ef7 b93d 1cad 403d
000000a0: 8c9d 2c3d d01a bb3d c01d db3a 2532 b9bd
000000b0: a08b 4e3b 809c 87bd ae23 a13d 7c5b 513d
000000c0: f26d a2bd 0031 cf3a 48c9 ac3d a870 0ebc
000000d0: d09b 3a3d e149 d3bd 65f2 5cbd a8e5 b3bc
000000e0: ce16 893d 8e6e d6bd 0e0a ba3d 7275 c1bd
000000f0: 4890 ae3c 0235 98bd f095 8f3d 9c2f b1bd
00000100: ba47 85bd 3eaa aabd 2eb0 36bd 5245 04bd
00000110: a6a3 74bd 60af 163d 92f9 97bd 7c49 f6bc
00000120: c0ed 8f3c 0950 bebd e8a2 973c 0c71 3b3d
00000130: 72b6 aa3d 9e59 be3d 4c03 debc 2cc5 5e3d
00000140: c06b cdba 5da1 81bd 5e68 a6bd 5070 ab3d
00000150: 647a bebc ba4c 8f3d 5402 ad3d c220 70bd
00000160: 5c7b cabd 24f6 2ebd ec39 c0bc 1e3b 04bd
00000170: 88f4 873d 66ac 963d 3600 dfbd 6091 c4bd
00000180: 68ee 893d 6531 aabd 508d 0ebd 3971 b8bd
00000190: e13b c5bd a2fa 63bd fb2e a2bd 8065 d0bc
000001a0: ccc4 7b3d 8cf9 d93d 19f0 dabd f429 0e3d
000001b0: bee3 803d 662e d53d a01e 27bb d0c9 da3c
000001c0: d8a6 3dbc 04cd 243d dcbc 823d e72b e6bd
000001d0: 60e3 c53c 405e 663c a0e5 443d bea1 5bbd
000001e0: a06a e0bb 0058 39b8 ddf7 e5bd f0e2 1bbc
000001f0: 8406 84bd ae77 c13d b28b 9f3d 0e03 51bd
00000200: 58ca 4f3d f06a d6bd f2cd d2bd f087 a23d
00000210: 8086 613d b2ac 1ebd 34de db3d 6077 36bd
00000220: dd27 d6bd 9c89 483d f311 d4bd c89d 80bc
00000230: 7e38 4fbd 5847 d53c 30ee 693c c351 57bd
00000240: b41e 9d3d ac0a 05bd 4535 92bd 74ce 0c3d
00000250: dce9 6a3d 0870 cb3d e879 073c 766f 9abd
00000260: 506e 26bd fe0a 3fbd 08b6 1bbc d869 e33c
00000270: 44a3 adbd 7c9c 913d 9eae af3d d0ed 413c
00000280: 0af6 e13d 007e 0a39 9402 b63d b084 aa3d
00000290: 0291 873d d0bd ba3c 10fb cebd 48f5 fa3c
000002a0: 39fb b4bd 1a73 c23d c08d e43b cb0e dabd
000002b0: 7e49 a5bd e0dc 3c3d a0d3 d33d 9add 9c3d
000002c0: 08bf b0bd 404e dbbc 38ab d23c 88d4 e23d
000002d0: 56f9 dc3d f0eb cabc f238 42bd 9c83 2c3d
000002e0: be94 993d 9d7b 8dbd ecce 823d 20cf 863d
000002f0: ea3b 963d 3f99 80bd c426 dbbd fa21 cf3d
00000300: 08e8 de3c 0c03 0d3d 385a 5b3d 73d7 b2bd
00000310: 80a2 97bb ccee e73d a00c 6e3d 0403 103d
00000320: 68b6 633d 82f0 b13d 5adb 2cbd f5fe a6bd
00000330: 42b7 c03d 098b 6cbd 9563 bdbd d80f 2cbd
00000340: 709a c5bd 64ab 073d e477 1c3d 90c3 52bd
00000350: 40a9 38bc 0d6d 87bd 6c0d 843d e0c6 693d
00000360: a85c d13d 8ae0 883d 1441 4c3d 165f 07bd
00000370: 80d1 a53d d0d5 41bd 4003 6a3d dc9f b63d
00000380: 78fb aa3d 5c9a c5bc 3ba1 9bbd a62b c5bd
00000390: ae7c e33d 5a30 cf3d ee48 a7bd 3254 0abd
000003a0: 9ecc b53d 40ed 9abd 1431 0ebd ca20 853d
000003b0: 4813 b0bc 70b4 d23c a05c 5e3d f49c aebc
000003c0: 5ab5 8dbd d0bb 0b3d 4044 99bd fed4 89bd
000003d0: 9819 03bd 003a 4f3d 4330 d1bd d8b0 76bc
000003e0: 660f c33d 0c46 0dbd c0d6 753d 6aec 04bd
000003f0: 4067 6d3d ccf4 9f3d 6a38 7bbd ea94 0fbd
0.04301764 -0.11169223 0.061207965 0.024234459 0.005330287 0.050916642 -0.010755293 -0.009492919
-0.09588234 -0.103487305 0.0571924 0.043129712 -0.0288345 0.0918957 0.04114315 -0.043230288
0.016631082 0.057684034 0.08749218 0.03165409 0.055478156 0.08958867 -0.052441217 0.100203976
0.044862136 0.105046704 -0.027810626 0.022702843 -0.017786875 0.06185755 -0.052838568 0.027471587
0.093841076 0.08050534 0.09593168 -0.0076220185 0.09005165 0.006403491 0.09080432 0.04704009
0.042142436 0.091359735 0.001671724 -0.090427674 0.0031516328 -0.06621647 0.078681335 0.051112637
-0.07931127 0.001580745 0.08436829 -0.0086938515 0.04555875 -0.10316826 -0.053942103 -0.021960095
0.06693803 -0.104703054 0.09083949 -0.09446229 0.021309033 -0.074319854 0.0701102 -0.08651659
-0.065078214 -0.08333252 -0.04460161 -0.03229267 -0.05972638 0.036788344 -0.07420649 -0.030064337
0.017569423 -0.09292609 0.018510297 0.045762107 0.0833558 0.09294437 -0.027101181 0.054387257
-0.0015672371 -0.06329606 -0.08125375 0.08371031 -0.02325172 0.06997056 0.0844771 -0.05862499
-0.0988681 -0.042715207 -0.02346512 -0.03228294 0.066384375 0.07357101 -0.10888712 -0.095980406
0.067349255 -0.083102025 -0.034802735 -0.090059705 -0.096305616 -0.055658944 -0.07919117 -0.025439024
0.061466977 0.106433004 -0.10690326 0.03470798 0.062934384 0.104092404 -0.0025500432 0.02670756
-0.011575423 0.04023458 0.06383678 -0.112388425 0.024156272 0.014060557 0.04807055 -0.053621046
-0.006848648 -4.4189394e-05 -0.11228917 -0.009514555 -0.06446555 0.09446655 0.07790317 -0.051028304
0.05073008 -0.104696155 -0.10293187 0.07936084 0.05505991 -0.038738914 0.10735741 -0.04454744
-0.10456822 0.04895936 -0.10354986 -0.015700236 -0.050590985 0.026034996 0.01427798 -0.05256821
0.07671872 -0.03248088 -0.071390666 0.034376577 0.057351932 0.09933478 0.008268811 -0.07540791
-0.040632546 -0.046641342 -0.009503849 0.027760431 -0.08478406 0.07109925 0.085782275 0.011836484
0.11033256 0.00013207644 0.088872105 0.083260894 0.06619455 0.022795588 -0.1010648 0.030634537
-0.088369794 0.0949461 0.0069749057 -0.10647353 -0.08070658 0.04610908 0.10343099 0.07659455
-0.08630186 -0.026770711 0.02571641 0.11075693 0.107897446 -0.024770707 -0.04741759 0.0421177
0.074990734 -0.06908343 0.063871235 0.06582475 0.073356465 -0.062792294 -0.10700753 0.101139024
0.02721025 0.034426734 0.053552836 -0.087325 -0.004627526 0.11324844 0.05811751 0.035159126
0.055593878 0.08688451 -0.042201377 -0.08154098 0.09409954 -0.05774978 -0.092475094 -0.042007297
-0.09648597 0.033122435 0.038200274 -0.051456034 -0.011270821 -0.06612597 0.064478725 0.057074428
0.10222751 0.066834524 0.04986675 -0.033049665 0.080965996 -0.047323048 0.057132006 0.089172095
0.08348745 -0.024121456 -0.07599112 -0.09627466 0.11107765 0.10116644 -0.08168207 -0.0337717
0.08876918 -0.07564783 -0.034714773 0.06500395 -0.021493569 0.025720805 0.054287553 -0.021315075
-0.06919356 0.03411466 -0.07483721 -0.06730078 -0.03200683 0.050592422 -0.10214283 -0.015056811
0.095244214 -0.03449063 0.060019255 -0.032452025 0.057959795 0.07810363 -0.061333098 -0.035054125

l1.bias f4 [77]
00000000: 8868 ac3d e0a5 173d 160d 973d 10f5 c73c
00000010: 007c c03d 30ac 953d f790 debd 77b7 a0bd
00000020: 1e56 14bd 14ef 5b3d b0c1 2f3c ae6f b33d
00000030: d8ad 7b3d 7485 723d 044c c03d 6a8f bcbd
00000040: b0d9 c73d f878 e13d 1264 c73d 6442 32bd
00000050: dca9 c8bd 0800 eb3c cc8a 523d b098 a1bc
00000060: c0d2 753c 089d 69bc 5eae b13d 804c 35bd
00000070: 1c7b 2a3d 28e7 b93c 6412 a73d 4893 9f3c
00000080: be89 40bd 48ec e33c ca03 1fbd 5657 d2bd
00000090: 914e 5abd eb86 b0bd 5260 c13d f8b2 12bc
000000a0: 78eb 213d 80b6 51bc e02c d33c 7c64 0dbd
000000b0: 43a9 d4bd 909b 323d 0811 c13c da0f ab3d
000000c0: 5072 cd3d c0b4 813d e6e5 c73d 6f11 93bd
000000d0: 76de 02bd ac8f db3d 403d 67bd 9e5f 45bd
000000e0: c66f 02bd 549c e3bc f897 0d3d 34f9 883d
000000f0: eaf2 d6bd b857 f83c 5a21 0dbd 0c32 8dbd
00000100: 1047 5cbc 845e a03d 60ac dd3b 80f0 a8bc
00000110: 92d2 cd3d d6db c1bd 88f6 7e3d 24ff c2bd
00000120: 7678 ab3d ec74 eebc b05a 5bbd 2045 b23b
00000130: 0075 ef3c
0.08418375 0.037023425 0.07375543 0.024408847 0.09398651 0.07308233 -0.108674936 -0.07847493
-0.03621494 0.0536948 0.010727331 0.087615356 0.061445087 0.059209302 0.09389499 -0.092070416
0.097583175 0.11009401 0.09735884 -0.043520346 -0.09798023 0.028686538 0.0514019 -0.019726127
0.01500386 -0.014258631 0.08675836 -0.04426241 0.041621312 0.022693232 0.081578046 0.019479409
-0.04700636 0.027822629 -0.038821973 -0.10270564 -0.053297583 -0.086194836 0.094422 -0.008953802
0.0395312 -0.012799859 0.025778234 -0.034519657 -0.103838466 0.043605387 0.023567691 0.08352633
0.10031569 0.063333035 0.097606465 -0.071810596 -0.031950437 0.107207626 -0.056454897 -0.04818689
-0.031844877 -0.027784504 0.034568757 0.06688157 -0.10495551 0.030315265 -0.034455635 -0.06894311
-0.013444677 0.078305274 0.0067649335 -0.020622492 0.10049929 -0.094657585 0.06224683 -0.095213205
0.083725855 -0.029108487 -0.053553283 0.0054403692 0.029230595

l2.weight f4 [77, 77]
00000000: c06e 5bbd 7f5e 4ebd 8569 80bd d2e0 913c
00000010: d904 1e3e 10ec b03d 095d 6f3e edb4 3abe
00000020: 57df 60be 7ad2 babd 4b5c b8bd 82c7 0cbe
00000030: 355a 4dbc f541 c13e 84fb 2b3e d9a0 64be
00000040: 651a 25bd b31e 3a3e e856 843c 76f6 453a
00000050: 314f 1a3e ade4 19be 930f aebd 8979 9bbe
00000060: 8a64 a33d 8f82 8bbd 41e4 5f3e 5192 953e
00000070: 62fd 39be 1f94 7c3e 5f0f 1a3e 752e 273e
00000080: a34f df3d 2502 59be e009 c5bd 7dc6 17be
00000090: 607e fd3d 3032 fd3d 6b0b 1fbe da8a c8bd
000000a0: ceda 8fbd ccff 25bd cd5b 023e 873f 1dbe
000000b0: 8503 833e b8d6 bc3d 4ee9 d7bd d346 b03e
000000c0: f65e 15be 8ff2 03be 6a98 afbd 1c58 f53c
000000d0: 027f fabd 7d24 463c baa6 83bc cfda 1bbe
000000e0: 1c7b 7bbe eae8 38be afbb cebc 463e 67be
000000f0: a41c 1cbe c616 d8be cd66 31be 23c7 b13d
00000100: 8db4 b7bc ecc1 8d3d 9995 893e 99a4 a83c
00000110: 6d98 20be 24b1 8f3e 9a58 04be d123 083d
00000120: 8bb2 b2bd 212d a23d b4b5 323e cf30 973e
00000130: 96b2 893c 27bb 1a3e 67ae 9bbe abee 893e
00000140: 8fda 943e 7309 c8bc 7250 833e 8d6a 9e3e
00000150: 5d6f 05bd 5016 34be 8a41 473e d89e 8ebe
00000160: 24a8 67bb e761 05be c563 7f3d 84fe 923e
00000170: ac39 923e b749 56bd e3fb 81be 9b02 a93e
00000180: 2c5f df3b 1cf4 d8bd 4a22 90bd 408b c8bd
00000190: 21fc 16be eb4f b03d dba0 b23e 62fa 833e
000001a0: cd36 913e 204d 1ebe c07b 2b3e fb3e 9e3e
000001b0: 8677 4b3c e18e 82bd 071b a7bd 709c 30bd
000001c0: 0002 0cbe 83ed babc 61e8 28bd b0c6 333d
000001d0: 4b92 863e c1f9 5b3b ea67 063e 4749 1dbe
000001e0: 6428 23be f82b 15be d0fb b3be 8fcc 5ebe
000001f0: e2f7 04be 0d9e e63d e393 8f3e 1e2a 8a3e
00000200: cdfa 81be 36e8 a83e 9007 e6bd 4c93 12be
00000210: dddf 533e 13c0 04bd 77c0 46be 78c1 1abe
00000220: 6b92 8dbd 93c1 10bd 0a10 a43e acfd 5a3e
00000230: db51 293d 6879 bebe 5516 41bd 8b22 303e
00000240: f85e e13c fe0d 213e f945 3a3d af1e 13be
00000250: ef6f 913d f865 b6bd 1bde 543e ba60 40be
00000260: 21df 8f3e 79ae 093e c30d c2bc a852 fd3c
00000270: d559 18be 8583 b1bd c99e 883e 2032 373e
00000280: 6799 2c3e b890 73bd 8fa1 3f3e 9d50 4bbe
00000290: fa61 71bd 698e 1f3e c650 253e f1af ebbd
000002a0: ab16 2c3e 090c afbd dc9d aa3c 0aec 823d
000002b0: ec51 253d c37c c13d 367a da3d fb6f 8b3d
000002c0: 097b b63c 3709 293e 46d7 ac3d 3835 84be
000002d0: 5510 a63e a476 823e af1f 06be c066 133e
000002e0: 3dae 413e 1932 8b3e ac38 0e3e c323 32bd
000002f0: 6ed6 5bbc 6a2e e83d 990b 033e d2d7 063d
00000300: f0e5 b83d c58b b6bd 579a b6bc 3910 19be
00000310: 38f6 8bbe e0c6 95bc 45f5 cbbd bdf2 4a3e
00000320: e9bd 043e 197a 01be 0a46 d8bc 8ba0 febd
00000330: 0044 6fbb 162b 403d 7060 12be aa4c bdbe
00000340: 2191 c83d 26d4 f3bd eae1 233e 9ad3 3d3e
00000350: 62fd cc3c 1d4f c83a 5e04 a13d a933 84be
00000360: 8a34 d4bd 551b a13e f038 a63d 27a5 583e
00000370: 2db7 633e e806 883f e8c2 c93d 2bc6 553d
00000380: f599 003e aef5 13be be25 313e c1dc c0be
00000390: 7c97 853e 10b7 963e 61ed 4cbd 28c0 9abd
000003a0: 3e1b 8e3d 1c9d 0ebd b62c c23d b84e 64bc
000003b0: b04d e03b bd7b e2bd b4cd 933d ac22 463d
000003c0: d82f 173d a054 2fbd dc64 2bbd 5893 78bd
000003d0: a47a a9bc 476b afbd 703e d4bc d026 343d
000003e0: 441c 98bc b6b3 37bd 62f6 9dbd 6298 b03d
000003f0: 2a84 8bbd 302d cebb ee0f b83d 929c 43bd
-0.053572416 -0.050383087 -0.06270126 0.017807398 0.15431537 0.08638775 0.23375334 -0.1823308
-0.21960197 -0.091221765 -0.090019785 -0.13747981 -0.012533714 0.37745634 0.16795164 -0.22326984
-0.040308375 0.18175773 0.016154721 0.0007551679 0.15069272 -0.15028639 -0.08499064 -0.3036616
0.07978161 -0.068120115 0.21864416 0.29213193 -0.18163064 0.24665879 0.15044926 0.16326316
0.109038614 -0.21192224 -0.09621024 -0.14821811 0.1237762 0.12363088 -0.155317 -0.09792109
-0.070241556 -0.04052715 0.12730332 -0.15356265 0.25588623 0.09220642 -0.10542546 0.34429035
-0.14587006 -0.12885498 -0.085739926 0.02994924 -0.12231256 0.01209366 -0.016070712 -0.15220188
-0.24558681 -0.180576 -0.025235979 -0.22582349 -0.152453 -0.42204875 -0.17324372 0.086805604
-0.02242496 0.06921753 0.26871946 0.020586299 -0.15683146 0.28064835 -0.12924424 0.033237282
-0.087254606 0.07918764 0.17452127 0.29529426 0.01680879 0.15110455 -0.30406496 0.26939902
0.29072997 -0.024418568 0.25647312 0.30940667 -0.032576907 -0.17586637 0.19458595 -0.27855563
-0.0035348022 -0.13025628 0.062351007 0.28709805 0.28559625 -0.052316394 -0.25387487 0.330098
0.0068167653 -0.10593435 -0.0703779 -0.09792185 -0.14744617 0.08608993 0.34888348 0.25776964
0.28362122 -0.15459108 0.16746426 0.30907425 0.012418633 -0.06374908 -0.08159452 -0.04311794
-0.13672638 -0.022818333 -0.04123724 0.043890655 0.26283488 0.0033565613 0.13125578 -0.15359984
-0.15933377 -0.14567554 -0.35153055 -0.2175772 -0.12985185 0.112606145 0.28042516 0.26985258
-0.25386658 0.32989663 -0.11231911 -0.14314002 0.20690866 -0.03240974 -0.19409357 -0.15112865
-0.06912693 -0.035340857 0.32043487 0.2138583 0.04133783 -0.37202 -0.047140438 0.17200677
0.027511105 0.15727994 0.045476887 -0.14367174 0.07101428 -0.08906168 0.20787852 -0.18786898
0.2809992 0.13445462 -0.023688203 0.030923203 -0.14878018 -0.086676635 0.26683643 0.17890215
0.16855393 -0.059464186 0.18713973 -0.1985497 -0.05893133 0.15581669 0.16144094 -0.115081675
0.16805522 -0.085472174 0.020827226 0.06392677 0.04036133 0.094476245 0.10667841 0.06808468
0.022275465 0.16507421 0.08439498 -0.25821853 0.32434335 0.2548114 -0.13098024 0.14394665
0.18914123 0.2718666 0.13888806 -0.043491136 -0.013417823 0.11336978 0.12797393 0.032920666
0.09028232 -0.08913378 -0.022290392 -0.14947595 -0.27336287 -0.018283308 -0.09958891 0.1981916
0.1296307 -0.12644233 -0.026400585 -0.12432965 -0.0036509037 0.04691609 -0.142946 -0.36972553
0.09793306 -0.119056985 0.16004148 0.18537751 0.025023166 0.0015282367 0.07862161 -0.25820664
-0.103615835 0.31466165 0.08116329 0.2115675 0.22237845 1.0627108 0.098516285 0.05219094
0.1255873 -0.14449188 0.17299554 -0.37668422 0.26092136 0.2943654 -0.05003107 -0.07556182
0.0693879 -0.0348178 0.09481184 -0.013934784 0.0068451986 -0.110587575 0.07216969 0.04837291
0.03691086 -0.042805314 -0.041844234 -0.060687393 -0.020688362 -0.085653834 -0.025908679 0.043982327
-0.018568166 -0.04484912 -0.077130094 0.08622815 -0.06812318 -0.006292008 0.08987413 -0.04775674

l2.bias f4 [77]
00000000: 851a d13e 2516 0a3f 4f35 843e 7ebf d0bd
00000010: 23bc b93e c0f8 453e 2ac2 0f3e 519c 803e
00000020: f6de be3e 39c7 933e e7a8 523e 38c2 a63e
00000030: f288 d73e adf2 5d3e e7a0 9b3e a626 a33e
00000040: 5cbd 7c3e 9730 5f3e 8fa1 853e 07c8 e43e
00000050: b692 8b3e 0445 a13e b4bf cc3e 1f69 a83e
00000060: 8923 a33e 9b90 4d3e a7ef 463e 4eb3 843e
00000070: 1f7e d03e 017e 8f3d 83cd 203e 30f4 663e
00000080: 63ca a63e 8ef9 b73e 3ed4 d33e f45e ac3e
00000090: 35f1 d33e 9791 233e f058 f43e b8b7 793e
000000a0: 5094 9d3e 9703 873e 0739 9b3e 171b 313e
000000b0: e660 f43c 53cd 7c3e ef12 d63e d5ed 7d3e
000000c0: bd37 623e 9d71 b73d fd17 533e e23e a03e
000000d0: cadc cd3d 8dd8 d83e b107 a43e eebc 923e
000000e0: cf19 523e e6e3 aa3e 9775 fd3d 660a c73e
000000f0: aea7 5f3e 4064 213e 9b47 8b3e 6b72 4d3e
00000100: 3438 a33e a9f1 b93e 0cc2 a33e e8cc a23e
00000110: 15d4 ac3e 6d3d a03d bf13 913e 15aa 213d
00000120: 2556 fa3d c598 b03d 0aac 013f ddd7 463e
00000130: 43a5 243e
0.40840545 0.5394004 0.2582192 -0.10192774 0.3627635 0.19333172 0.14038911 0.2511926
0.3727948 0.28862932 0.20572244 0.32570052 0.42096668 0.21674605 0.30396196 0.31865424
0.2468161 0.2179588 0.26099822 0.4468386 0.2726037 0.31497967 0.39990008 0.328927
0.3186305 0.20074694 0.19427358 0.2591805 0.40721223 0.07006455 0.15703396 0.22554088
0.32576284 0.35932583 0.41372865 0.33666193 0.41394964 0.15973507 0.47724104 0.2438649
0.30777216 0.26369926 0.30316946 0.1729549 0.029831361 0.246877 0.4181132 0.24797757
0.22091575 0.08957217 0.2061462 0.31297976 0.10051878 0.42352715 0.32037118 0.28659767
0.20517658 0.33376998 0.12375944 0.3887512 0.21841308 0.15760899 0.27203068 0.20063178
0.31878817 0.36317185 0.31983984 0.31796956 0.33755556 0.07824216 0.28335378 0.039468843
0.12223462 0.086228885 0.50653136 0.19418283 0.16078667

l3.weight f4 [10, 77]
00000000: 8011 ca3d c7b7 0f3e 32e6 89be 4043 5a3d
00000010: 982f b0be c9b2 d6be 0159 93be dabe 68be
00000020: edef 28bf 8a00 b9be 395d 01bf 8d82 a8be
00000030: 1e38 4a3e bd80 8c3e ec3b 9fbe 7557 ab3e
00000040: b43b f6be ae99 aebe 3a51 f3be 2b2a bcbe
00000050: 9b10 b8be 7408 08bf d63a 04bf 10c5 bfbe
00000060: df1f e7be dd64 3f3e 1793 633f 4a42 d2be
00000070: 6504 e1be b56c 7bbe b9c6 af3e d18a b03e
00000080: 0649 4e3e 83c1 743e 74a6 753e e609 c9bc
00000090: bd64 4f3e dfcd f8be d3d6 1d3e 5b33 aabe
000000a0: b155 303e 8151 0fbf c32c 02bf cfad cdbe
000000b0: db01 ce3c 474e 63be da3a 233e ac16 01bf
000000c0: 6cb3 04bf eb82 ecbd 8751 933e 70d3 b6be
000000d0: 4f96 96be 5829 eebe f800 9cbe 32ba 0fbf
000000e0: 2dd9 953e 689a 74bd c110 203f 5742 2c3e
000000f0: 7540 693e 8c3b a73d 7f2f efbe 89e5 54be
00000100: 4f30 c4be a7d3 1fbf 05b6 ecbe 900c 3b3e
00000110: 642d 1e3e 9626 963e afe5 973e 9d1d 78be
00000120: d72c 3fbe ec1f a4be 9174 11bf 3114 00bf
00000130: fa75 9cbe 9925 e0be c0d2 873d 42ac 9dbe
00000140: 8add 80bd f772 9bbe 9d02 0a3e dc2e 4abd
00000150: a34a 603e 0ae2 14bf 2118 6a3e 8736 b3be
00000160: 1993 3b3e 280e 02bf 9091 f1be 8265 1a3e
00000170: 0f3f 3f3e dad1 f4be 06a9 bebe 342d cf3d
00000180: 45bc 823d 6a0f 17bf ed57 a0be a8e6 a9be
00000190: 4ac1 c0be 54be c7be 2ce5 133e 9b1b 9d3e
000001a0: 1a53 67bd 0d2f 813e e03c 583e 8d89 9d3d
000001b0: 0cd1 013e 0a59 723d 7dac 1dbf 20e0 e8be
000001c0: 39a0 d43d 57cb 40be 1941 753e 23ce a8be
000001d0: 3a88 273e 99bd c0be b07b dfbe e24b 0bbf
000001e0: 6cf4 c6be 2f4a 523e 1002 07be f7d1 e2be
000001f0: 8945 3b3e 766f 7fbe 1d7c 923e 23c7 c0be
00000200: 7378 e23d 6c2f 2c3e 0b68 71be 074c f83d
00000210: aebe 8c3c b134 40bd baf4 333e 22c2 22bf
00000220: 014d d1bd 99bf 4d3e a33e a4bd 0e46 223e
00000230: 4e5c d4be cc11 abbd c3cd f0be abc3 973d
00000240: 6631 d0be d269 9bbe df88 19bf 8664 99be
00000250: 87e4 543e 394d 99be c6a8 db3d b3db cabe
00000260: 9b2b c73d bc89 403e e749 e5bb a24a 973e
00000270: 6f7c 9abe 16eb 8fbd 4701 5ebe 50ce e7be
00000280: d751 6cbd c862 87be fc2f b63e 7533 8dbe
00000290: 82fc b33e 1abd e9be fad6 973e c6d0 1cbf
000002a0: 6cb7 ccbe 641e b83e c5be e5be b597 f6be
000002b0: c18a b33e 54ee 923e dfd9 c83e b931 17bf
000002c0: f563 7e3e 74ae f6be e540 e7be a33e b7be
000002d0: 0ce9 70bf 850e 9a3e 4487 ac3e 468e 8cbe
000002e0: 7e06 84be ee63 1ebf 3d8d b63e 37f7 633e
000002f0: 3ed8 a73e 0a5e 693e 4f46 ab3e 38d0 aa3e
00000300: 9c38 863e dde7 98be 2c94 08bf 280e fabe
00000310: 696d 2bbf a16d dbbe 0670 d1be 7171 b6be
00000320: 8bf9 a33e 7bde f2be 1849 c83e 1331 c0be
00000330: d6e4 29bf 5f95 13bf fd2d c1be e192 d43e
00000340: 35ce a23e e530 ba3e d38e 31bf 44eb a0be
00000350: 68cf 15bf d7db 593e e014 d4bd 32ef 12bf
00000360: b56f 0dbf aeed 04bf 211b bdbe db29 9b3e
00000370: 66b8 89be 8883 c83e 331c 22be 13bd 05bf
00000380: d72c fbbe 034b 85be 984f 1dbe 03b9 113e
00000390: fbe1 a63e bf2a 8b3e 8687 b5be f2eb bc3e
000003a0: d89f 863e de47 cd3e d82b debd 8722 b53e
000003b0: dd5e 00bf e165 54be 96fb 323e 3105 d93e
000003c0: 6651 aa3e 95ae 57bf 7b14 8f3e cfa0 213e
000003d0: 6f53 9c3e e3b0 813e f65e 86be b72b a43e
000003e0: 7628 d9be e2f3 1dbf 4b83 a63e 0788 24bf
000003f0: bc38 e93e 80f6 9f3e 5f17 5d3e 1a42 d93e
0.09866619 0.14034949 -0.26933438 0.05328679 -0.3441131 -0.41933277 -0.28778842 -0.22729054
-0.659911 -0.36133224 -0.5053287 -0.32912102 0.1974797 0.2744197 -0.31100404 0.33465162
-0.48092425 -0.34101623 -0.47522908 -0.36750922 -0.3595017 -0.531379 -0.51652277 -0.37455034
-0.45141503 0.1869082 0.88896316 -0.410662 -0.43948665 -0.24553187 0.343313 0.3448091
0.20145044 0.23901944 0.23989278 -0.024540853 0.20253272 -0.48594567 0.1541398 -0.33242306
0.17220189 -0.5598374 -0.5084955 -0.40171668 0.02514737 -0.22197829 0.15940419 -0.5042522
-0.51836276 -0.11548408 0.28773138 -0.3570819 -0.2941155 -0.46515918 -0.3046949 -0.56143486
0.29267254 -0.059717566 0.62525564 0.16822182 0.22778495 0.081656545 -0.46715924 -0.20790686
-0.38318107 -0.6243233 -0.4623262 0.18266511 0.15447003 0.29326314 0.29667422 -0.24230047
-0.18669449 -0.32055604 -0.5681849 -0.5003081 -0.3055876 -0.43778685 0.06631994 -0.30795485
-0.06292255 -0.3036115 0.1347756 -0.049361095 0.21903472 -0.5815741 0.22860767 -0.3500254
0.18317832 -0.5080285 -0.47181368 0.15077785 0.18676399 -0.47816354 -0.3723833 0.10116044
0.06383566 -0.59007895 -0.31317082 -0.3318379 -0.37647468 -0.39012396 0.14442891 0.30685124
-0.056475736 0.2523121 0.21116972 0.07692251 0.12677401 0.059166946 -0.6159132 -0.45483494
0.103821225 -0.18827568 0.23950614 -0.3296977 0.1636056 -0.37644652 -0.43649054 -0.54412663
-0.38858354 0.20536111 -0.1318438 -0.44300815 0.18288244 -0.24944863 0.28610316 -0.3765193
0.1105813 0.16814965 -0.23574845 0.12123876 0.017180767 -0.04692525 0.17573825 -0.63577473
-0.102197655 0.2009262 -0.080197595 0.15847036 -0.41476673 -0.08353004 -0.47031984 0.074103676
-0.40662688 -0.30354172 -0.59974474 -0.29959506 0.20790301 -0.2994173 0.1072555 -0.39620742
0.09725114 0.18802541 -0.0069973352 0.29549128 -0.3017306 -0.07027261 -0.21680175 -0.4527459
-0.057695236 -0.26442552 0.35583484 -0.2757832 0.35153586 -0.45652086 0.29656202 -0.61256063
-0.3998369 0.35960686 -0.44872108 -0.48162618 0.35066798 0.28697455 0.39228722 -0.59060246
0.24842818 -0.48179972 -0.45166698 -0.35789976 -0.941056 0.30089203 0.3369695 -0.27452296
-0.25786203 -0.6187123 0.3565463 0.22262274 0.32782167 0.2278978 0.3345208 0.33361983
0.26215065 -0.29864398 -0.5335109 -0.48838925 -0.6696382 -0.42857078 -0.4090578 -0.35633424
0.32026324 -0.47435364 0.39118266 -0.3753744 -0.663648 -0.576498 -0.377304 0.4151831
0.31797948 0.3636543 -0.6935856 -0.31429493 -0.585196 0.21275268 -0.10355544 -0.57396233
-0.55248576 -0.5192517 -0.3693476 0.3030537 -0.26898497 0.3916285 -0.1583107 -0.5224163
-0.49057648 -0.26033792 -0.15362394 0.14230733 0.32594284 0.2718105 -0.3545496 0.36898762
0.26293826 0.40093893 -0.10848206 0.35377905 -0.5014475 -0.20741989 0.17478785 0.42386773
0.33265227 -0.84250766 0.27945313 0.15784 0.30532405 0.25330266 -0.26244324 0.32064602
-0.42413682 -0.6170026 0.32522044 -0.6427006 0.45551097 0.31242752 0.21590947 0.42433244

l3.bias f4 [10]
00000000: 0d69 853d b144 42be f0f6 c63d 0e3c 423e
00000010: 0916 d6bc a97b 20be c538 fdbc f1e3 4abd
00000020: beba d8bd c069 c13d
0.065141775 -0.18971516 0.09715068 0.18968222 -0.026133554 -0.15672173 -0.030910859 -0.049533788
-0.10582493 0.09443998
